src/link_prediction/checkpoints/epoch=10-step=10.ckpt (torch, 617420 bytes, 30 tensors)

model.enc.weight f4 [32, 1433]
0.01407611 0.020408634 -0.008697712 -0.025695119 -0.012108647 0.012774802 0.0058434233 -0.014093144
0.01144587 -0.017912414 0.019966327 0.0040525324 0.017236404 -0.023431852 -0.019270673 0.024126416
-0.003431753 -0.00856817 0.011472569 -0.021875657 0.024576062 -0.0248916 -0.012749865 -0.011139308
-0.0071233464 -0.008955069 -0.0025881957 -0.006661825 -0.019929238 -0.0066721663 0.007297731 -0.02412649
0.024617283 0.024736842 -0.012116503 0.015464926 0.014210866 0.01686351 -0.02436312 0.00497023
0.008633658 0.004893128 -0.02534241 0.007824315 -0.016897712 -0.0056398488 -0.020245127 -0.0042902776
-0.026311154 0.0011329618 0.018922135 -0.013500342 0.0055501047 -0.0025103784 0.012006247 0.023451867
0.013370978 -0.015997432 0.023395797 0.020799996 0.016685138 0.017923899 -0.00022313115 0.0042741136
0.0036481821 0.0035119047 -0.0036800178 -0.009153556 0.0056480626 0.02315359 0.016513111 -0.007863472
0.018374963 -0.009340099 -0.02251182 -0.00562167 -0.0071285693 0.019291714 0.015930567 -0.019949665
-0.01430304 -0.006207681 0.014776058 0.010160276 -0.022159198 -0.0074684457 -0.02112278 -0.011054413
-0.0055277683 0.005352882 -0.020452209 0.0043117646 -0.021637948 0.005243775 0.001025052 -0.018650793
-0.009451546 -0.004036922 -0.020209592 -0.02459437 -0.003736208 0.002088197 -0.02164398 -0.003988359
-0.0030184647 -0.0139285 -0.02133785 0.020723375 0.0061434396 -0.025825543 -0.0036311948 0.012580284
0.024133334 -0.011247074 0.007162127 0.016665492 -0.017762039 -0.008018063 -0.019921105 -0.016776724
0.0022747354 0.014259581 -0.020888776 0.011057399 -0.015836813 0.009233821 -0.026684592 0.020455196
0.020626692 -0.01938447 0.0077744364 -0.0010181341 0.010370648 0.004883181 0.0070296777 0.01810189
0.025604472 -0.015171876 -0.0122661125 -0.018869476 0.016912995 0.01787588 -0.01918077 0.01157658
-0.010019753 -0.02681712 -0.018479597 -0.005564668 0.008030555 0.013791216 -0.006821602 -0.02227444
0.005852988 -0.008336278 -0.013044958 -0.0198119 -0.014862026 -0.024065724 -0.012519478 -0.025175126
0.011938174 0.015215004 0.012650404 -0.015473455 0.006011693 0.009292242 -0.013920783 0.00040141342
-0.00624679 -0.009258005 0.014894356 -0.023457 -0.026091166 0.006173967 -0.0046121995 0.019652052
0.0046482873 0.0033946724 0.00056439935 0.017088125 -0.015119336 0.014407047 -0.021909846 -0.0033622214
-0.0073389118 0.002436414 -0.017735334 -0.011840049 0.0024665256 -0.013517165 0.01591233 -0.0022631285
0.025315871 0.012221225 -0.01582996 0.0011596306 -0.003212351 0.013168435 0.01577919 -0.0021478117
0.027021062 -0.0059897355 0.010992789 0.004720377 -0.0011212688 0.021422984 0.02252437 -0.00888909
-0.015033263 0.01195577 0.006640896 0.008993382 0.025082689 -0.015563492 0.020206714 0.01395133
-0.017305575 -0.0042283395 -0.0095129805 0.0022036554 -0.003441049 -0.0014704736 0.0031320872 0.007883124
-0.02021113 0.004212679 -0.019485919 -0.011340977 -0.022423372 0.018869707 0.01455667 -0.018508473
-0.010885419 0.0037085982 0.0030990196 0.018103084 0.023086721 0.01690228 0.011417189 -0.014646805
0.019357475 0.021204507 0.016420277 -0.0034382367 0.008005662 0.021092283 0.024316616 0.020579746
0.01663359 0.018699516 0.009072766 -0.0030082054 0.019027717 -0.01810259 0.02514819 0.005447209
00000000: 7c9f 663c 0230 a73c d980 0ebc 927e d2bc
00000010: 5963 46bc 674d 513c 307a bf3b eee6 66bc
00000020: 7587 3b3c 0ebd 92bc 6c90 a33c 1bcb 843b
00000030: 5c33 8d3c 28f4 bfbc 88dd 9dbc c3a4 c53c
00000040: 43e7 60bb 8261 0cbc 71f7 3b3c 9434 b3bc
00000050: bd53 c93c 78e9 cbbc cfe4 50bc a581 36bc
00000060: f66a e9bb 48b8 12bc b89e 29bb 704b dabb
00000070: a442 a3bc 30a2 dabb ce21 ef3b eba4 c5bc
00000080: 2faa c93c eba4 ca3c 4c84 46bc 9a60 7d3c
00000090: b1d4 683c 5825 8a3c 2a95 c7bc 50dd a23b
000000a0: 3074 0d3c 8856 a03b e39a cfbc 8e31 003c
000000b0: 126d 8abc 7bce b8bb 1cd9 a5bc 7595 8cbb
000000c0: 7d8a d7bc e47f 943a 9802 9b3c 8a30 5dbc
000000d0: a7dd b53b 2985 24bb dab5 443c 211e c03c
000000e0: f211 5b3c 0c0d 83bc 8ba8 bf3c c164 aa3c
000000f0: 45af 883c 24d5 923c 50f8 69b9 dd0d 8c3b
00000100: 5716 6f3b fc27 663b 742c 71bb ccf8 15bc
00000110: 6213 b93b 99ac bd3c 8146 873c cbd5 00bc
00000120: 1787 963c 3707 19bc b56a b8bc fc35 b8bb
00000130: c696 e9bb a809 9e3c d280 823c 7b6d a3bc
00000140: 4c57 6abc cd69 cbbb 4717 723c 4977 263c
00000150: 3587 b5bc ddb9 f4bb ae09 adbc 921d 35bc
00000160: 4822 b5bb 3b67 af3b 648b a7bc b449 8d3b
00000170: 1142 b1bc f9d3 ab3b 0a5b 863a 8cc9 98bc
00000180: a8da 1abc 2848 84bb 968e a5bc 227a c9bc
00000190: 2bdb 74bb 22da 083b b74e b1bc c8b0 82bb
000001a0: 6fd1 45bb 5d34 64bc b7cc aebc 11c4 a93c
000001b0: e84e c93b 1790 d3bc 57f9 6dbb 891d 4e3c
000001c0: 45b3 c53c a645 38bc 47b0 ea3b 1286 883c
000001d0: b281 91bc 325e 03bc 9631 a3bc 576f 89bc
000001e0: ba13 153b 05a1 693c f01e abbc 182a 353c
000001f0: 34bc 81bc 7449 173c a599 dabc a891 a73c
00000200: 4ff9 a83c 2ecc 9ebc b3c0 fe3b e972 85ba
00000210: a6e9 293c 1703 a03b 3659 e63b 6a4a 943c
00000220: 78c0 d13c 7693 78bc cef7 48bc 2994 9abc
00000230: 1f8d 8a3c 7070 923c fd20 9dbc b2ab 3d3c
00000240: e429 24bc 94af dbbc 8662 97bc d257 b6bb
00000250: 9792 033c 8df4 613c bf87 dfbb e378 b6bc
00000260: 6cca bf3b e294 08bc 85ba 55bc 914c a2bc
00000270: db7f 73bc 7b25 c5bc 7f1e 4dbc 113c cebc
00000280: 5598 433c 5a48 793c a443 4f3c 6084 7dbc
00000290: bcfd c43b 7d3e 183c ff13 64bc cc74 d239
000002a0: dfb1 ccbb e3ae 17bc 7507 743c e528 c0bc
000002b0: 24bd d5bc fd4e ca3b ef21 97bb 57fd a03c
000002c0: a950 983b 2779 5e3b 33f4 133a 65fc 8b3c
000002d0: 17b7 77bc 890b 6c3c 477c b3bc b758 5cbb
000002e0: 417b f0bb 3eac 1f3b b149 91bc c4fc 41bc
000002f0: 6fa5 213b 1977 5dbc 935a 823c ff50 14bb
00000300: 3b63 cf3c 883b 483c d5ad 81bc bffe 973a
00000310: 4e86 52bb 6bc0 573c 5c43 813c 4dc2 0cbb
00000320: 465b dd3c 8b45 c4bb 191b 343c 64ad 9a3b
00000330: 8af7 92ba 417f af3c 0785 b83c 8ca3 11bc
00000340: 134e 76bc 22e2 433c e09b d93b fa58 133c
00000350: 367a cd3c 04fe 7ebc 8d88 a53c 1f94 643c
00000360: 6cc4 8dbc e28d 8abb 55dc 1bbc 346b 103b
00000370: 3983 61bb e8bc c0ba b443 4d3b 3828 013c
00000380: d091 a5bc 830a 8a3b efa0 9fbc 81cf 39bc
00000390: 38b1 b7bc a594 9a3c 197f 6e3c 159f 97bc
000003a0: c258 32bc f40b 733b ec18 4b3b eb4c 943c
000003b0: 5d20 bd3c a676 8a3c 290f 3b3c 27f9 6fbc
000003c0: 9193 9e3c 13b5 ad3c d183 863c 0a54 61bb
000003d0: 2e2a 033c b9c9 ac3c a433 c73c db96 a83c
000003e0: 2b43 883c ba2f 993c f0a5 143c 5025 45bb
000003f0: 04e0 9b3c e24b 94bc 9403 ce3c 807e b23b

model.external_w.w f4 [1, 32]
-0.11618508 1.0424615 -1.6599805 -2.0214558 -1.7619824 -0.23805805 -0.3509574 0.917947
-0.5917918 0.38448423 0.6992939 -1.106533 -0.9383269 -1.9640552 -0.84404814 0.7683979
-0.76862127 -0.15943784 0.7600345 0.12949917 0.5679643 -0.8449265 1.2724682 -1.4750059
-0.20780466 -0.70100135 0.5037708 0.08850163 2.0279896 0.03884866 -0.49824944 0.2128198
00000000: 71f2 edbd 616f 853f 3e7a d4bf 885f 01c0
00000010: a488 e1bf 7dc5 73be b0b0 b3be 93fe 6a3f
00000020: ab7f 17bf 1edb c43e ed04 333f e0a2 8dbf
00000030: 3136 70bf 2966 fbbf 8a13 58bf bab5 443f
00000040: 5dc4 44bf ac43 23be 9f91 423f 6e9b 043e
00000050: 1c66 113f 1a4d 58bf 3de0 a23f fecc bcbf
00000060: bfca 54be d374 33bf 20f7 003f 5840 b53d
00000070: 95ca 0140 c61f 1f3d 8d1a ffbe 6fed 593e

model.pairwise_w.W.parametrizations.weight.original f4 [32, 34]
0.11267156 0.1177828 -0.018166883 0.11355105 -0.15853731 0.1108576 0.0884264 0.10174819
0.1327958 -0.14478064 0.08419608 0.077846505 0.1272006 0.07571122 -0.080132656 -0.026081365
-0.16465877 0.009531298 0.008185361 -0.12498472 0.018535221 -0.15015198 -0.14176166 -0.039417848
0.015321542 0.1655182 0.1663435 0.14344554 0.02287002 0.009435781 0.0677235 -0.01885681
0.16739649 0.08419479 -0.036976047 0.025133835 -0.13123283 0.00895299 -0.043428984 0.044133596
-0.06559742 0.05452792 -0.08355509 0.12983097 0.016104784 -0.057325494 -0.1493328 -0.102533415
-0.1359733 0.14243911 0.07737019 -0.13775568 -0.03182476 -0.08368353 0.10437399 -0.1482954
0.11021861 -0.04348724 0.003412105 0.08543681 0.1196935 -0.165936 0.042778496 -0.035601072
0.14386162 0.05530521 -0.026475972 -0.06303312 -0.13906522 -0.14966615 -0.098620676 0.106434435
-0.10541359 0.02342243 0.14028382 0.021737806 0.14363687 0.030649742 0.15860751 0.11110564
0.1552176 0.11144111 0.16872673 -0.10327536 -0.14505751 -0.102041654 -0.107546546 0.024165353
0.15430139 -0.06873159 -0.17170659 0.011276162 -0.15004101 -0.025904717 0.025477286 0.13391246
0.10066393 -0.16299811 -0.03602312 0.07624797 -0.10094593 0.12921022 0.041787278 -0.08652016
0.15663564 0.030888384 -0.007787454 0.006153529 -0.04838613 -0.022550287 0.024240695 0.07983805
0.16817106 -0.12149738 -0.12811252 0.0109835 0.102821 -0.061651163 -0.0045292787 0.114329025
-0.0014659906 0.16798316 0.07017766 -0.07412655 0.118408866 -0.14045554 0.013903765 0.09112856
0.13087492 0.03769112 0.036195867 0.0005414326 -0.034409184 -0.12277002 0.14950378 -0.11595992
-0.13135765 0.11117133 0.06031938 0.067693226 -0.1155417 -0.10872142 0.14367184 0.16540934
0.017888647 -0.16658296 0.05039417 -0.15458523 -0.13710496 -0.08491536 -0.1329284 0.10420242
0.05736784 -0.01881277 -0.08203764 -0.08487887 0.022718783 -0.024648577 -0.13811825 -0.16124058
0.09481802 0.05301934 -0.053070772 0.1401419 0.12285133 -0.006453081 -0.115967825 0.02800372
-0.10538431 -0.004680671 -0.0013706009 -0.15052083 0.12560293 0.11939597 0.08168241 -0.019037394
0.16910774 -0.15173174 0.11898961 -0.048523523 0.070870385 0.085345894 0.15068212 0.16158792
-0.02759734 -0.09199714 -0.16951786 0.13492711 0.07599336 0.15621951 0.014542393 -0.15088221
0.03633156 0.08264321 0.14847447 0.010435262 -0.0058889473 -0.12926847 0.0011771491 0.12033751
-0.029383 0.04887114 -0.10606925 0.1465728 0.08406642 -0.117955886 -0.09977702 -0.007894634
0.10630788 0.062347054 -0.14856116 -0.00043305516 0.12721178 -0.15258478 0.046971638 0.09775889
-0.048256464 0.0921492 0.16576077 0.050689362 -0.07895163 0.15967643 0.0044864593 0.16130872
0.074817695 0.06533051 -0.16127437 -0.03251465 0.10522081 -0.16651326 0.03251 -0.10738939
-0.03300783 0.048605103 0.026412787 0.108443014 -0.031298514 -0.12501793 -0.035403404 0.046950124
-0.08076783 0.11828259 -0.029394947 0.12382055 0.027227087 0.015770877 0.12251262 -0.07146571
0.07698849 0.16822532 -0.16792767 0.16423963 -0.15244192 -0.08627164 0.08016848 -0.055323277
00000000: 59c0 e63d 1c38 f13d b7d2 94bc 748d e83d
00000010: 9b57 22be 4f09 e33d e718 b53d 5b61 d03d
00000020: 9ffb 073e 6041 14be ff6e ac3d fd6d 9f3d
00000030: e040 023e 7c0e 9b3d 971c a4bd 96a8 d5bc
00000040: 4f9c 28be 2929 1c3c e41b 063c fdf7 ffbd
00000050: 2dd7 973c 71c1 19be f829 11be 9c74 21bd
00000060: 3407 7b3c 9a7d 293e f355 2a3e 63e3 123e
00000070: e859 bb3c 8998 1a3c 9eb2 8a3d 9979 9abc
00000080: fc69 2b3e 516e ac3d 3274 17bd 79e5 cd3c
00000090: e661 06be 90af 123c 97e2 31bd 6ec5 343d
000000a0: f157 86bd ab58 5f3d ee1e abbd 69f2 043e
000000b0: 2eee 833c 23ce 6abd b3ea 18be 0afd d1bd
000000c0: 963c 0bbe 8fdb 113e 4374 9e3d d30f 0dbe
000000d0: ae5a 02bd 4562 abbd 08c2 d53d c0da 17be
000000e0: 4bba e13d ad1f 32bd 9f9d 5f3b 7ff9 ae3d
000000f0: de21 f53d 20eb 29be 8138 2f3d 6ed2 11bd
00000100: 7650 133e b787 623d 23e4 d8bc 8217 81bd
00000110: 1d67 0ebe 1542 19be a3f9 c9bd 4cfa d93d
00000120: 15e3 d7bd 65e0 bf3c 90a6 0f3e 7c13 b23c
00000130: 8b15 133e 2b15 fb3c 026a 223e 5b8b e33d
00000140: 5df1 1e3e 3d3b e43d b3c6 2c3e 0882 d3bd
00000150: f589 14be 37fb d0bd 5d41 dcbd 6bf6 c53c
00000160: 2f01 1e3e 26c3 8cbd dad3 2fbe a7bf 383c
00000170: 5aa4 19be 2136 d4bc beb5 d03c 5920 093e
00000180: e428 ce3d fae8 26be fb8c 13bd e527 9c3d
00000190: bdbc cebd af4f 043e 2329 2b3d 7b31 b1bd
000001a0: 1865 203e a309 fd3c e62d ffbb 8ba3 c93b
000001b0: 8930 46bd 61bb b8bc 6c94 c63c 2282 a33d
000001c0: 0935 2c3e 9ed3 f8bd ee2f 03be 23f4 333c
000001d0: d193 d23d ee85 7cbd 586a 94bb 5625 ea3d
000001e0: 7b26 c0ba c703 2c3e 4eb9 8f3d a9cf 97bd
000001f0: 5980 f23d 94d3 0fbe 9ecc 633c 9ca1 ba3d
00000200: 1304 063e 0162 1a3d 1e42 143d edee 0d3a
00000210: a5f0 0cbd d96e fbbd 8517 193e 657c edbd
00000220: 9f82 06be cbad e33d 7411 773d bfa2 8a3d
00000230: 20a1 ecbd 56a9 debd b61e 133e 1161 293e
00000240: 368b 923c b994 2abe 1e6a 4e3d 974b 1ebe
00000250: 3e65 0cbe 1be8 adbd 621e 08be 1468 d53d
00000260: 8afa 6a3d 3d1d 9abc 5a03 a8bd f9d4 adbd
00000270: be1c ba3c d0eb c9bc df6e 0dbe 401c 25be
00000280: f32f c23d cf2a 593d bd60 59bd 5c81 0f3e
00000290: 7a99 fb3d 5e74 d3bb 8a80 edbd 0f68 e53c
000002a0: bbd3 d7bd 5060 99bb bca5 b3ba 2222 1abe
000002b0: 0e9e 003e e085 f43d 1b49 a73d 4ff4 9bbc
000002c0: 942a 2d3e 915f 1bbe d3b0 f33d 9ac0 46bd
000002d0: 7e24 913d d4c9 ae3d 6a4c 1a3e 4e77 253e
000002e0: d113 e2bc ff68 bcbd 1796 2dbe 552a 0a3e
000002f0: 68a2 9b3d 02f8 1f3e 3843 6e3c de80 1abe
00000300: 67d0 143d d840 a93d b109 183e a9f8 2a3c
00000310: 12f8 c0bb f45e 04be 924a 9a3a 8373 f63d
00000320: 9eb4 f0bc 1b2d 483d d63a d9bd 2e17 163e
00000330: 042b ac3d db92 f1bd e557 ccbd 7f58 01bc
00000340: f2b7 d93d a05f 7f3d 6b20 18be ae0b e3b9
00000350: ce43 023e 2f3f 1cbe 5565 403d d035 c83d
00000360: 92a8 45bd b8b8 bc3d 31bd 293e a69f 4f3d
00000370: 64b1 a1bd 3882 233e 2603 933b 1d2e 253e
00000380: 053a 993d 01cc 853d 1c25 25be 152e 05bd
00000390: 027e d73d 7482 2abe 3529 053d f8ee dbbd
000003a0: 3833 07bd 2516 473d a15f d83c 5f17 de3d
000003b0: df32 00bd b304 00be 2903 11bd c64e 403d
000003c0: 9b69 a5bd 243e f23d accd f0bc a195 fd3d
000003d0: 570b df3c ed31 813c e6e7 fa3d 9d5c 92bd
000003e0: 24ac 9d3d 4243 2c3e 3bf5 2bbe 6f2e 283e
000003f0: bc19 1cbe 30af b0bd 5f2f a43d a99a 62bd

predictor.layers.0.weight f4 [32, 32]
-0.11689193 -0.047267385 0.16007791 -0.07576759 0.14183632 0.109161854 0.10956439 -0.13015682
-0.16550137 -0.17096116 0.031281345 0.0133780725 0.104614265 0.0010350501 0.17520274 0.17234749
-0.09900258 0.02487893 0.12244453 0.10465309 -0.17085837 -0.0066298665 -0.15493535 0.09257466
-0.15491854 0.022117864 0.15727386 -0.04821452 0.05526557 -0.08380141 0.027393073 -0.0662763
-0.084097385 0.060603417 -0.16945258 -0.149825 0.0049988125 0.10437463 -0.07326604 0.02882522
-0.019722262 -0.12672943 0.03103423 -0.08508084 0.08284653 0.09125547 -0.030368157 -0.03541808
-0.07768764 -0.117502175 0.13187243 0.16963932 0.029681623 0.020903531 -0.030352747 -0.029473934
-0.08711671 0.14519784 0.0033710345 0.1615614 0.0809781 -0.055990186 0.04123374 -0.055120856
-0.014281754 0.010096034 -0.11581519 0.035024676 -0.16028833 -0.02850079 0.01061696 -0.005747146
0.15575878 0.0823026 0.032061912 -0.08729194 0.14081073 0.112058446 -0.096223064 -0.12851483
-0.03787601 0.16267347 -0.0439314 -0.076717995 0.110917576 -0.008009677 -0.09342101 0.033511527
0.16227601 0.018680602 0.096975625 0.16863644 -0.09819937 -0.010505442 -0.13086616 0.043681145
0.040950418 -0.12876484 -0.056184594 0.034025546 -0.12525664 -0.086935446 0.031281766 0.027364952
0.0229114 0.027491136 -0.13667099 0.13307016 0.0004067739 0.16383567 -0.012177989 0.07644599
0.015000997 0.038537793 0.13766913 0.08915509 0.107201636 -0.11263497 -0.096123256 0.06775107
0.0856618 0.13110176 -0.03128349 -0.023620969 0.037663054 0.13736944 0.15426278 0.05129998
0.0072439504 -0.04159105 0.132129 0.07249374 -0.07781567 -0.13449726 0.08877017 -0.0067985673
-0.11026627 -0.0010599949 0.09417319 0.036054228 -0.14906506 0.17613633 0.09468526 0.15313484
-0.17374134 0.14624846 -0.0885671 0.038121738 0.14673205 -0.054520592 -0.01822269 0.04131745
-0.020005697 -0.02837137 0.09268545 -0.052009046 0.05472098 -0.12108709 -0.17482291 0.1197023
-0.07172155 -0.101359576 0.06543563 0.11171382 -0.08299367 -0.06988967 -0.033191472 -0.14117397
0.05139526 -0.09032715 -0.11973647 -0.15439892 0.098712005 0.17277078 -0.05442401 0.09797166
-0.11387919 -0.05948917 -0.008073486 -0.036173563 0.01776416 0.080746494 0.14623977 0.097049
-0.10450842 0.16195461 -0.12772536 0.0020051596 -0.1005808 0.008205129 -0.15922081 -0.0678116
0.16757645 -0.07102872 -0.07493125 0.17527895 -0.17114231 -0.08576405 0.082035094 -0.0047314847
-0.15292451 0.10128634 0.088182 0.02224782 -0.013206207 0.059031937 0.10977969 -0.14971802
0.026589917 -0.16026203 0.1369128 0.13639688 -0.017530419 -0.05440076 -0.17364468 -0.0668563
-0.15347493 -0.12003322 0.14309843 -0.08663925 -0.11260266 -0.10742725 0.031143164 -0.032802563
0.006494772 -0.1349845 -0.13121781 0.008992576 -0.098495014 -0.15554576 0.12647988 0.110431515
-0.047012694 0.087333016 -0.056109633 -0.08698866 0.14798439 0.018852493 -0.16087604 -0.14888427
0.08485297 0.08760291 0.09544978 -0.09121822 0.09125089 -0.15700425 -0.12412809 0.17362052
0.09679027 -0.15974467 -0.17314844 0.015762866 -0.0081478255 -0.039152604 0.16364846 -0.17496863
00000000: 0965 efbd 729b 41bd 77eb 233e 0a2c 9bbd
00000010: 8a3d 113e 4090 df3d 4b63 e03d d447 05be
00000020: 3179 29be 7110 2fbe de20 003d b42f 5b3c
00000030: 0140 d63d 85aa 873a 5968 333e dc7b 303e
00000040: ddc1 cabd e6ce cb3c 33c4 fa3d 5c54 d63d
00000050: 7ff5 2ebe 5a3f d9bb 5fa7 1ebe c997 bd3d
00000060: f7a2 1ebe 8630 b53c 660c 213e 977c 45bd
00000070: 265e 623d 13a0 abbd 7067 e03c debb 87bd
00000080: 403b acbd 4a3b 783d fa84 2dbe ba6b 19be
00000090: 14cd a33b 5ec2 d53d 810c 96bd de22 ec3c
000000a0: 9590 a1bc 5cc5 01be 7f3b fe3c dd3e aebd
000000b0: 71ab a93d 26e4 ba3d a4c6 f8bc 8c12 11bd
000000c0: b31a 9fbd fba4 f0bd 9109 073e eeb5 2d3e
000000d0: e026 f33c e23d ab3c 53a6 f8bc 5273 f1bc
000000e0: 3f6a b2bd beae 143e 93ec 5c3b 5a70 253e
000000f0: d9d7 a53d f755 65bd b6e4 283d 68c6 61bd
00000100: 05fe 69bc d669 253c 8430 edbd 0976 0f3d
00000110: a022 24be 7d7a e9bc c2f2 2d3c 8e52 bcbb
00000120: 3b7f 1f3e 448e a83d 5a53 033d 1ec6 b2bd
00000130: b030 103e e67e e53d 9910 c5bd 6499 03be
00000140: e023 1bbd e093 263e 69f1 33bd 531e 9dbd
00000150: c128 e33d 053b 03bc 8453 bfbd 6243 093d
00000160: af2b 263e 1008 993c 289b c63d 08af 2c3e
00000170: c01c c9bd 041f 2cbc c701 06be 00eb 323d
00000180: a0bb 273d eeda 03be d121 66bd 5f5e 0b3d
00000190: 4743 00be 360b b2bd 4f21 003d 772c e03c
000001a0: b0b0 bb3c 1735 e13c 7bf3 0bbe 8b43 083e
000001b0: 4544 d539 8ac4 273e 3086 47bc b78f 9c3d
000001c0: bec6 753c ced9 1d3d 23f9 0c3e f296 b63d
000001d0: 888c db3d 2aad e6bd 45dc c4bd 13c1 8a3d
000001e0: 746f af3d 8a3f 063e 1e23 00bd c380 c1bc
000001f0: 9344 1a3d 93aa 0c3e 10f7 1d3e ee1f 523d
00000200: a95e ed3b 605b 2abd d34c 073e 9977 943d
00000210: d25d 9fbd a6b9 09be 23cd b53d 84c6 debb
00000220: 48d3 e1bd 87ef 8aba e0dd c03d 99ad 133d
00000230: 83a4 18be 155d 343e 58ea c13d 61cf 1c3e
00000240: 40e9 31be 28c2 153e ab62 b5bd 8a25 1c3d
00000250: ed40 163e fc50 5fbd c047 95bc 7d3c 293d
00000260: fde2 a3bc 136b e8bc dfd1 bd3d 7007 55bd
00000270: 1b23 603d 82fc f7bd c704 33be 7b26 f53d
00000280: bfe2 92bd 9c95 cfbd 1e03 863d 37ca e43d
00000290: 96f8 a9bd 5122 8fbd c8f3 07bd e98f 10be
000002a0: d683 523d 71fd b8bd 6538 f5bd c01a 1ebe
000002b0: 8529 ca3d d3ea 303e b6eb 5ebd 5ea5 c83d
000002c0: 7e39 e9bd eaaa 73bd a846 04bc bb2a 14bd
000002d0: 2586 913c 6b5e a53d e1bf 153e a0c1 c63d
000002e0: 8308 d6bd 6ed7 253e 70ca 02be ff68 033b
000002f0: 4efd cdbd ce6e 063c c80a 23be cfe0 8abd
00000300: 2999 2b3e 8177 91bd 8e75 99bd 537c 333e
00000310: ee3f 2fbe 10a5 afbd 0402 a83d 920a 9bbb
00000320: 3e98 1cbe 366f cf3d c498 b43d 0f41 b63c
00000330: d95e 58bc 79cb 713d 2dd4 e03d ae4f 19be
00000340: 19d3 d93c bb1b 24be de32 0c3e a0ab 0b3e
00000350: f49b 8fbc 55d3 5ebd e9cf 31be f5eb 88bd
00000360: 8828 1dbe fad3 f5bd 6588 123e eb6f b1bd
00000370: 399c e6bd d102 dcbd f31f ff3c fb5b 06bd
00000380: 19d2 d43b 6039 0abe f65d 06be 9955 133c
00000390: c1b7 c9bd 6347 1fbe f183 013e eb29 e23d
000003a0: 6290 40bd a7db b23d 37d3 65bd 1c27 b2bd
000003b0: 3889 173e 8b70 9a3c b0bc 24be 1e75 18be
000003c0: 65c7 ad3d 2869 b33d 2d7b c33d 9ed0 babd
000003d0: bfe1 ba3d b9c5 20be de36 febd 94c9 313e
000003e0: fa39 c63d 1b94 23be d34d 31be 2021 813c
000003f0: 757e 05bc 7b5e 20bd 7693 273e fa2a 33be

predictor.layers.0.bias f4 [32]
-0.001333006 -0.056640927 0.17149357 0.14102629 -0.13372941 -0.1647719 0.017825797 0.021450616
-0.0429708 0.08149082 0.13387242 -0.029230153 -0.10988071 0.111999944 -0.08490388 -0.035033915
0.09895611 0.08610979 0.026515516 0.07486464 -0.010085832 0.17027842 -0.06601116 0.14908378
0.11075046 -0.15850076 0.015159706 0.13985209 -0.16481891 0.12401962 -0.14486359 0.018019764
00000000: 42b8 aeba 5100 68bd 039c 2f3e 3269 103e
00000010: 5df0 08be f7b9 28be 6807 923c 34b9 af3c
00000020: 2602 30bd a9e4 a63d da15 093e 1374 efbc
00000030: 2309 e1bd 3a60 e53d 16e2 adbd b97f 0fbd
00000040: 80a9 ca3d 545a b03d 1137 d93c a252 993d
00000050: 0c3f 25bc 775d 2e3e dc30 87bd 6ba9 183e
00000060: 23d1 e23d 064e 22be 6a60 783c 6335 0f3e
00000070: 4ac6 28be 00fe fd3d 1f57 14be 2f9e 933c

predictor.layers.1.weight f4 [32, 32]
-0.17217007 0.072960354 -0.03233159 0.029102469 -0.124178104 -0.052301433 0.11407892 -0.15329693
0.175221 -0.115601 -0.122498706 0.10618622 -0.07105971 0.03447746 -0.14669971 0.06451292
0.11812752 0.061972126 -0.014977507 0.11366246 0.01770569 -0.13389294 -0.05684738 -0.12689829
-0.17087533 -0.028296279 -0.00891123 -0.08951053 0.17100047 -0.014082691 -0.17172293 0.04935996
-0.01231304 0.17340161 0.096240774 0.12783001 -0.024252212 0.07679613 0.012401326 0.14546557
-0.124219626 0.0539919 -0.1123779 -0.012471877 0.034118865 0.12570284 0.024072973 0.11949923
-0.17276126 -0.09953446 0.13506041 0.0070529226 -0.03666423 -0.026966212 0.16337974 0.13071904
-0.06264141 -0.038736757 0.002833061 0.06924686 0.009289958 0.14274848 -0.1494745 0.034388434
-0.030926285 0.014229788 0.06763513 -0.109397806 0.038944013 -0.053267475 0.15502702 -0.092634514
-0.06409353 0.013320363 -0.066131674 0.02584669 0.054677565 0.109174125 0.047402337 0.018394819
-0.092432715 -0.0097953575 0.10721738 0.14382613 -0.13462242 -0.012456535 -0.11777348 0.08443926
0.03559239 -0.1237411 -0.17474689 0.10192184 0.026616557 0.009302308 -0.0117460005 0.14710489
0.09322923 0.061872836 0.06563703 0.047092844 0.014676519 0.08930896 0.13280207 0.17444032
-0.044315215 -0.05272758 -0.030537823 -0.017737329 -0.07993563 0.150494 0.16750145 0.013503422
-0.010267689 0.11808623 0.07131427 0.13178617 -0.07181375 -0.15187366 -0.052612394 -0.12779266
-0.017201861 0.07190632 -0.023303786 0.043055553 0.09916527 -0.09133265 0.099548005 0.15784141
0.0414384 0.0032044386 0.018680565 0.16423726 -0.038957536 0.02843631 0.103483245 -0.09037038
-0.08326701 0.012494452 0.0149999 -0.09684705 -0.07488972 -0.105988845 0.06777704 -0.16577114
-0.103147626 -0.060063913 -0.17319836 -0.013065147 0.1407593 -0.12715074 0.15646158 -0.08458018
-0.017546298 0.087304994 0.14894009 0.044342812 -0.16984454 -0.14904569 0.1682321 -0.05854047
0.17090125 -0.16316968 -0.091517396 0.1577197 -0.11068838 -0.031198727 0.1332119 -0.1672357
-0.15650797 -0.09146085 -0.050227094 0.032372225 0.13067904 -0.002129026 0.1347213 0.03792827
0.022369377 -0.114752404 -0.114028744 -0.124191 0.15525909 -0.08218047 -0.15733106 -0.035078008
0.024424229 0.04736398 -0.1740715 0.13767916 0.025300993 -0.12753712 -0.024184534 -0.01863459
0.08246384 -0.1058547 0.14283563 0.08556151 -0.1057027 -0.09197401 0.09241258 0.1299221
0.07263476 -0.09117365 0.09143487 -0.12707224 -0.024009012 -0.018189415 -0.09584895 -0.16413477
0.10898375 -0.061711077 -0.03790017 -0.13683401 -0.07178809 0.13757221 -0.12172353 -0.15389758
-0.11488395 -0.10094354 -0.011602958 0.17125788 -0.06374304 0.071947455 0.15410478 0.08455595
-0.065966494 0.022080954 0.05347149 0.08043326 0.09748495 0.1516585 0.035058036 0.09090578
-0.026746232 0.1513842 0.06537742 0.0059099817 0.14720097 -0.04930598 0.16992317 -0.1175769
-0.13517873 -0.08278366 0.15028927 0.08033849 0.116137095 -0.16978799 0.023286348 -0.020713389
-0.017895155 0.11784655 0.10863626 0.13362058 -0.16124958 -0.087686755 -0.008983791 -0.05117096
00000000: 5a4d 30be 3d6c 953d 216e 04bd 4d68 ee3c
00000010: 1751 febd 073a 56bd 35a2 e93d dff9 1cbe
00000020: 226d 333e 38c0 ecbd 9ae0 fabd 2978 d93d
00000030: c187 91bd 3d38 0d3d 7338 16be 5a1f 843d
00000040: d7ec f13d 7cd6 7d3d 3864 75bc ddc7 e83d
00000050: 860b 913c 3b1b 09be ccd8 68bd a0f1 01be
00000060: f1f9 2ebe 99cd e7bc 6800 12bc 4c51 b7bd
00000070: bf1a 2f3e 16bb 66bc 23d8 2fbe ab2d 4a3d
00000080: a2bc 49bc 3190 313e e219 c53d dfe5 023e
00000090: 93ac c6bc 4a47 9d3d ee2e 4b3c edf4 143e
000000a0: dc66 febd 9c26 5d3d 6226 e6bd d856 4cbc
000000b0: 39c0 0b3d 3fb8 003e af34 c53c 03bc f43d
000000c0: 54e8 30be b9d8 cbbd 474d 0a3e 341c e73b
000000d0: 3b2d 16bd 3fe8 dcbc 054d 273e 36db 053e
000000e0: 244a 80bd 6faa 1ebd e0aa 393b 4cd1 8d3d
000000f0: e834 183c a82c 123e d80f 19be e3da 0c3d
00000100: 1f59 fdbc 0f24 693c 4984 8a3d f50b e0bd
00000110: c283 1f3d ff2e 5abd 67bf 1e3e 2ab7 bdbd
00000120: 7843 83bd a73d 5a3c 0b70 87bd 70bc d33c
00000130: 95f5 5f3d af96 df3d f428 423d bbb0 963c
00000140: 5d4d bdbd b57c 20bc c994 db3d 2847 133e
00000150: 76da 09be 7f16 4cbc 3933 f1bd 7eee ac3d
00000160: 53c9 113d f96b fdbd d9f0 32be 66bc d03d
00000170: f70a da3c b568 183c 4c72 40bc aaa2 163e
00000180: f7ee be3d 5f6e 7d3d b56c 863d 6de4 403d
00000190: c875 703c 9ee7 b63d 44fd 073e 7ca0 323e
000001a0: df83 35bd e0f8 57bd 752a fabc e04d 91bc
000001b0: 4bb5 a3bd 191b 1a3e 8085 2b3e 753d 5d3c
000001c0: cf39 28bc 31d7 f13d 370d 923d f4f2 063e
000001d0: 1613 93bd c584 1bbe 1880 57bd 14dc 02be
000001e0: ebea 8cbc 9f43 933d 95e7 bebc 055b 303d
000001f0: 2917 cb3d 9d0c bbbd d3df cb3d 2ea1 213e
00000200: 50bb 293d 8f01 523b fc07 993c d02d 283e
00000210: f091 1fbd 44f3 e83c 06ef d33d 1b14 b9bd
00000220: e587 aabd 88b5 4c3c 24c2 753c bf57 c6bd
00000230: c85f 99bd ae10 d9bd b0ce 8a3d e9bf 29be
00000240: 103f d3bd 9405 76bd e95a 31be 330f 56bc
00000250: 3523 103e ce33 02be 7737 203e 6038 adbd
00000260: 41bd 8fbc f6cc b23d c083 183e cfa0 353d
00000270: baeb 2dbe 6f9f 18be 0945 2c3e 22c8 6fbd
00000280: bd00 2f3e f415 27be 796d bbbd 4681 213e
00000290: 97b0 e2bd 7994 ffbc b368 083e d63f 2bbe
000002a0: a043 20be d34f bbbd edba 4dbd bd98 043d
000002b0: bad0 053e 2187 0bbb 61f4 093e ac5a 1b3d
000002c0: fc3f b73c 4f03 ebbd e787 e9bd da57 febd
000002d0: 3dfc 1e3e 3c4e a8bd 651b 21be f5ad 0fbd
000002e0: 5215 c83c bc00 423d cd3f 32be c4fb 0c3e
000002f0: 0744 cf3c 1799 02be a51e c6bc 91a7 98bc
00000300: cde2 a83d 59ca d8bd 8143 123e df3a af3d
00000310: a87a d8bd df5c bcbd cf42 bd3d 4d0a 053e
00000320: 88c1 943d 40b9 babd 3542 bb3d 3a1f 02be
00000330: 8cae c4bc f801 95bc 744c c4bd f212 28be
00000340: df32 df3d c1c4 7cbd 353d 1bbd 371e 0cbe
00000350: a205 93bd bbdf 0c3e 304a f9bd 5497 1dbe
00000360: 4748 ebbd 7dbb cebd 551a 3ebc 3a5e 2f3e
00000370: b68b 82bd 3059 933d a5cd 1d3e ab2b ad3d
00000380: 7119 87bd 1ee3 b43c ec04 5b3d 31ba a43d
00000390: 31a6 c73d 5e4c 1b3e 0499 0f3d cf2c ba3d
000003a0: ea1a dbbc 7604 1b3e 99e4 853d 85a8 c13b
000003b0: dabb 163e 11f5 49bd 5700 2e3e 28cc f0bd
000003c0: 4b6c 0abe 7b8a a9bd 6ee5 193e 8288 a43d
000003d0: 49d9 ed3d e7dc 2dbe 03c3 be3c 20af a9bc
000003e0: dc98 92bc 8859 f13d b07c de3d d5d3 083e
000003f0: 9c1e 25be 1d95 b3bd c030 13bc a498 51bd

predictor.layers.1.bias f4 [32]
0.13156931 -0.11240897 -0.028226262 0.05591561 -0.15816037 -0.04714066 0.16923977 0.015877279
0.036696743 -0.0423004 -0.12548721 -0.040042177 0.02002822 -0.05974814 0.013955348 -0.15646449
0.010283664 0.07971301 -0.07504821 -0.062754266 0.11306977 0.13160576 0.16238832 0.010952437
0.06019651 -0.15361981 0.12675472 0.074246906 0.12982762 -0.17023197 -0.041945633 0.12773354
00000000: 1bba 063e ad36 e6bd c33a e7bc c407 653d
00000010: cbf4 21be 9116 41bd 314d 2d3e 1111 823c
00000020: 534f 163d 2f43 2dbd b87f 00be 4403 24bd
00000030: 3912 a43c 77ba 74bd f9a4 643c 3a38 20be
00000040: d07c 283c 9340 a33d e0b2 99bd 4f85 80bd
00000050: 2091 e73d a9c3 063e 2049 263e da71 333c
00000060: 9e90 763d 834e 1dbe fdcb 013e c30e 983d
00000070: 88f1 043e 4a51 2ebe 2fcf 2bbd 95cc 023e

predictor.layers.2.weight f4 [32, 32]
0.037996415 0.041123226 0.038698327 0.1080256 0.17069122 -0.112675436 0.07825235 0.115958914
0.11692133 0.09080923 -0.096733056 -0.0083204815 0.018622976 -0.04360614 -0.010129551 0.10095477
-0.15273765 -0.10291232 0.052648265 -0.09993577 0.08879336 0.14250925 0.0045500747 -0.13327773
-0.0034102926 0.029440258 -0.032702517 -0.17312787 0.101445004 0.014915681 0.15494671 0.09118624
0.09242582 0.027211225 0.07762801 0.14964424 0.11511827 0.0021264984 0.054981478 0.13857295
0.08425303 -0.059078194 -0.050620418 -0.03681781 -0.15316005 -0.023302369 -0.17268658 -0.09748429
0.13339452 -0.11758347 0.03425172 0.13676845 0.09897719 0.07001546 -0.12012944 -0.007345167
0.0519251 -0.15440807 -0.11480975 -0.028317535 0.14837779 -0.11928928 0.07944116 -0.055374634
0.052874304 -0.16271558 0.00838818 -0.04125514 -0.044196688 -0.08199599 0.11054792 0.07879543
0.068774775 0.09863691 0.0073141824 -0.13144992 0.09864967 -0.06209267 0.12721553 0.07531108
-0.043113355 -0.054891348 -0.07234446 0.12934148 -0.112590626 0.1457991 0.052695036 0.11956635
-0.10593931 0.12823807 -0.0025891804 -0.112643436 -0.17466013 -0.17442113 0.11960518 0.10718466
0.14431292 0.10344894 -0.107920036 0.101848245 0.02752522 -0.11666708 0.0015148307 -0.16693139
-0.13635182 -0.06617914 0.0023780859 0.10072752 -0.063550994 -0.096552946 -0.1513749 0.076017156
-0.08556677 -0.14623737 -0.0043163556 0.1413112 0.0106938025 0.07166533 -0.046506103 -0.013386972
-0.15809754 -0.11729694 0.07751092 0.07665349 0.030103015 0.019829568 0.15346295 -0.007960853
0.10810859 -0.17493825 -0.04572811 -0.17392167 0.16154443 -0.17025456 -0.15019359 0.021770298
0.16410069 -0.12283412 -0.020588782 -0.16683608 -0.007029839 0.09618635 -0.1329806 -0.09930752
0.13346986 0.015316172 0.08480367 -0.02352553 -0.13448346 0.11676196 0.16700736 0.03490124
0.02717875 -0.022993986 0.098496705 0.0062959935 0.12505883 0.121572584 0.1701329 0.021761786
0.1541716 -0.122971706 -0.16532643 -0.14319313 -0.10702911 -0.078602865 0.12338787 -0.08895138
-0.017543446 0.089507125 -0.16954008 0.08498611 -0.06861735 -0.01798337 0.10000779 -0.01989433
0.03925258 -0.0044663246 0.1473924 0.16220103 0.15723848 0.088033 -0.16339274 -0.05986286
-0.11584995 -0.004892978 -0.070921384 0.15082076 -0.11514008 -0.15054248 0.13828844 0.103292234
0.16985224 0.017766569 0.1593112 -0.039486125 0.11461054 0.1191751 -0.11691746 -0.12419609
-0.08305893 -0.058826696 0.16021532 0.0014171507 -0.10350645 -0.08336103 0.07590653 -0.088522114
-0.13155617 -0.09300337 -0.12401876 -0.11794808 -0.021078771 -0.17414379 -0.17203356 -0.17529501
0.024527382 0.085371196 0.015420347 -0.09608723 0.11799841 0.121384256 -0.11664721 -0.109942295
0.093093246 0.050434966 0.14448969 0.11596658 0.090367794 -0.17131454 -0.09363147 0.13068357
-0.102834314 0.009776244 -0.086097494 0.07721448 -0.09357113 -0.14512007 -0.15203841 -0.12216999
0.069944076 0.075472884 0.034994323 -0.123985894 0.13367407 0.12159193 0.16229394 0.12302638
0.17576152 0.11651974 0.026307676 0.04800286 -0.10587495 -0.1680602 0.04217441 0.06426145
00000000: 21a2 1b3d d470 283d 2382 1e3d 873c dd3d
00000010: aec9 2e3e 61c2 e6bd c542 a03d de7b ed3d
00000020: 7374 ef3d 31fa b93d fb1b c6bd a152 08bc
00000030: 368f 983c 5a9c 32bd 6bf6 25bc 60c1 ce3d
00000040: 4267 1cbe b2c3 d2bd b5a5 573d 20ab ccbd
00000050: 4bd9 b53d f2ed 113e cb18 953b f579 08be
00000060: 377f 5fbb b22c f13c 13f3 05bd 6f48 31be
00000070: 66c2 cf3d e760 743c 5aaa 1e3e dabf ba3d
00000080: c049 bd3d 13ea de3c 6ffb 9e3d 573c 193e
00000090: 21c3 eb3d b95c 0b3b 4234 613d 11e6 0d3e
000000a0: da8c ac3d fafb 71bd 5b57 4fbd 46ce 16bd
000000b0: fdd5 1cbe 9ce4 bebc c0d4 30be d8a5 c7bd
000000c0: 9398 083e 9acf f0bd 884b 0c3d 070d 0c3e
000000d0: 8eb4 ca3d 4464 8f3d 6d06 f6bd baaf f0bb
000000e0: 6aaf 543d 261d 1ebe 6021 ebbd 2dfa e7bc
000000f0: 59f0 173e f04d f4bd 0cb2 a23d 83d0 62bd
00000100: ba92 583d ea9e 26be 946e 093c 26fb 28bd
00000110: 9607 35bd 83ed a7bd f366 e23d 805f a13d
00000120: cad9 8c3d 2602 ca3d cfab ef3b cf9a 06be
00000130: d708 ca3d e254 7ebd ca44 023e b23c 9a3d
00000140: a197 30bd c0d5 60bd 5529 94bd 1872 043e
00000150: ea95 e6bd 5c4c 153e c0d6 573d 34df f43d
00000160: b5f6 d8bd d750 033e 3daf 29bb 9ab1 e6bd
00000170: 1bda 32be 749b 32be 90f3 f43d a283 db3d
00000180: c4c6 133e 0add d33d 2e05 ddbd d095 d03d
00000190: 927c e13c 26ef eebd 498d c63a 10f0 2abe
000001a0: d09f 0bbe ee88 87bd a9d9 1b3b 3b4a ce3d
000001b0: 0627 82bd 8dbd c5bd 0602 1bbe e2ae 9b3d
000001c0: a13d afbd 40bf 15be 3770 8dbb e2b3 103e
000001d0: 0f35 2f3c 46c5 923d 2f7d 3ebd 0855 5bbc
000001e0: 52e4 21be 6139 f0bd 0cbe 9e3d 81fc 9c3d
000001f0: 999a f63c 9e71 a23c 6425 1d3e 3d6e 02bc
00000200: 0968 dd3d 0323 33be 664d 3bbd 8618 32be
00000210: e76b 253e 3657 2ebe 59cc 19be a057 b23c
00000220: 030a 283e 7590 fbbd cea9 a8bc 14d7 2abe
00000230: 905a e6bb 59fd c43d 112c 08be be61 cbbd
00000240: 53ac 083e aef0 7a3c 8cad ad3d 9db8 c0bc
00000250: 08b6 09be e520 ef3d fa03 2b3e 9af4 0e3d
00000260: f8a5 de3c e25d bcbc a4b8 c93d 9f4e ce3b
00000270: 6c0f 003e 0cfb f83d 5237 2e3e c645 b23c
00000280: 29df 1d3e 97d8 fbbd 554b 29be 38a1 12be
00000290: 1432 dbbd 8afa a0bd c8b2 fc3d 242c b6bd
000002a0: 46b7 8fbc 834f b73d ea9b 2dbe 330d ae3d
000002b0: 4187 8cbd dc51 93bc e2d0 cc3d 6ff9 a2bc
000002c0: 50c7 203d 3f5a 92bb 09ee 163e 0718 263e
000002d0: 2003 213e a54a b43d 6d50 27be c232 75bd
000002e0: bd42 edbd 4655 a0bb 3b3f 91bd c270 1a3e
000002f0: 90ce ebbd cf27 1abe 7c9b 0d3e e18a d33d
00000300: bfed 2d3e 328b 913c 7a22 233e 34bc 21bd
00000310: eeb8 ea3d 1312 f43d 6c72 efbd 855a febd
00000320: cd1a aabd 43f4 70bd 7c0f 243e b0bf b93a
00000330: 31fb d3bd 30b9 aabd e274 9b3d 154b b5bd
00000340: a9b6 06be 8d78 bebd 8cfd fdbd c38e f1bd
00000350: 63ad acbc c052 32be 9129 30be 8980 33be
00000360: a6ed c83c 18d7 ae3d a0a5 7c3c 62c9 c4bd
00000370: 26a9 f13d 4f98 f83d bce4 eebd 6d29 e1bd
00000380: aca7 be3d e594 4e3d 1bf5 133e e37f ed3d
00000390: c012 b93d 146d 2fbe dbc1 bfbd ead1 053e
000003a0: cc9a d2bd 8a2c 203c e253 b0bd a022 9e3d
000003b0: 38a2 bfbd 5b9a 14be f5af 1bbe 4234 fabd
000003c0: d73e 8f3d 8791 9a3d 3556 0f3d 51ec fdbd
000003d0: dbe1 083e 3105 f93d 6230 263e 41f5 fb3d
000003e0: d4fa 333e e7a1 ee3d 3283 d73c a69e 443d
000003f0: f7d4 d8bd f917 2cbe 13bf 2c3d 829b 833d

predictor.layers.2.bias f4 [32]
0.011665536 -0.13084698 0.0711138 0.15116341 -0.093418695 -0.0943611 0.123601064 0.08414692
-0.122912034 0.0050664265 -0.09122924 0.109485745 -0.10274321 -0.12718138 0.113012925 -0.06291231
-0.15067329 -0.06751423 -0.17018093 -0.016968418 -0.15830393 0.030702664 -0.0763463 -0.0040277047
0.15653986 -0.17000829 -0.10672098 -0.16992174 -0.009111216 0.063213415 0.08642462 -0.1482169
00000000: ce20 3f3c c0fc 05be 1da4 913d 95ca 1a3e
00000010: 4d52 bfbd 6440 c1bd 8e22 fd3d 3855 ac3d
00000020: 4eb9 fbbd 4404 a63b 65d6 babd 103a e03d
00000030: 086b d2bd d63b 02be 5273 e73d 2bd8 80bd
00000040: 194a 1abe e744 8abd e943 2ebe 5a01 8bbc
00000050: 6d1a 22be 2784 fb3c 735b 9cbd d6fa 83bb
00000060: fc4b 203e a716 2ebe 8790 dabd f7ff 2dbe
00000070: 3647 15bc 0976 813d 64ff b03d 2cc6 17be

predictor.layers.3.weight f4 [1, 32]
-0.16629821 0.08965197 -0.09193344 -0.09204237 -0.008776991 -0.110324055 -0.117593564 -0.110049784
-0.04671639 0.05806013 0.044634387 -0.01513994 -0.05970997 0.12732221 -0.017639127 0.044672817
0.0019218897 -0.0342247 0.025904914 0.123526305 0.14482674 0.039261546 0.0648461 0.11231421
-0.073359765 0.027448123 0.06358581 0.14895718 0.14529051 0.1042802 -0.03519558 0.15767317
00000000: 144a 2abe 749b b73d 9947 bcbd b680 bcbd
00000010: 5ecd 0fbc 94f1 e1bd e5d4 f0bd c861 e1bd
00000020: af59 3fbd 75d0 6d3d 8cd2 363d 830d 78bc
00000030: 7192 74bd c160 023e ee7f 90bc d8fa 363d
00000040: ebe7 fb3a 332f 0cbd 8b36 d43c 5cfb fc3d
00000050: 764d 143e b7d0 203d 08ce 843d fe04 e63d
00000060: a53d 96bd e3da e03c 4739 823d 3b88 183e
00000070: 09c7 143e dc90 d53d 3e29 10bd 1375 213e

exp_avg f4 [32, 1433]
-0.00037166744 -0.00038830086 -3.2631127e-05 -7.0542876e-05 0.0010993175 1.9734487e-05 -4.643334e-05 -5.071093e-05
0.00022540949 0.00012321415 0.00026871945 -7.9194084e-05 0.00025177025 -0.00016637196 0.0002635159 0.00014075164
0.00013468513 0.00016572163 0.00028933465 -0.00086564483 -3.8272094e-05 -0.00037417188 -5.2626638e-05 0.0001375747
-1.8011064e-05 0.00027950035 0.00022320147 -1.6724329e-05 -0.00015989084 -0.00014699092 0.00034845414 2.2133027e-05
3.8939463e-05 0.00021113176 -9.995949e-05 -0.00032203723 -0.00013139547 -2.8718401e-05 1.5208546e-05 -0.0006889959
0.00019846339 0.0010107155 -2.3652829e-05 0.00011167541 -0.00035535192 -1.7666296e-05 -0.00022325145 -6.889423e-05
0.00023076819 2.4991723e-06 -1.1620138e-05 0.0003325598 -0.00016171965 -2.6967598e-05 -2.551811e-06 5.905403e-05
-0.0006113466 -4.678675e-05 -0.00022657422 -0.00011287885 3.2454147e-05 0.00071844616 0.00015527701 6.4256696e-05
-1.0003802e-05 0.0007582772 -4.438737e-05 0.00024655278 0.000110487366 -5.808344e-05 -0.0003294463 0.000114433984
-0.000305133 -5.540637e-05 -0.00017772362 6.2757135e-05 1.0236317e-06 0.00046063692 0.00070456346 -1.7215547e-05
-0.000109603316 8.945955e-05 0.0002470024 -6.389927e-05 -3.5462058e-08 -9.131908e-05 2.1661393e-05 0.00016316104
-0.00041018406 0.00011174284 -1.6139458e-05 -3.1739035e-06 -1.5079758e-06 -0.0007621257 -0.000115658615 -5.5646404e-05
0.00025328586 -0.00019610886 -2.4311406e-05 -0.00089879317 4.9014425e-06 4.5891417e-07 -0.0001745006 0.00017063739
6.964675e-05 1.8483137e-05 7.887991e-05 -5.08139e-05 0.00016931878 9.886598e-05 1.4359432e-05 -8.685005e-05
-0.00023975217 6.245801e-05 -0.00022071054 0.00017080757 -1.1075242e-06 -9.900588e-05 8.033273e-05 2.3067336e-05
-1.3865239e-05 -3.023667e-05 0.000116724645 -0.00022515835 -5.659395e-05 -0.00022024868 -0.00023397677 7.5871765e-05
-2.0068786e-05 0.00030848457 -5.7744033e-05 -0.00017103426 -0.00090463995 -0.00013017976 0.00019357183 8.0131824e-05
-0.00010470108 7.219427e-05 8.043574e-05 -0.00025754597 0.00013233241 6.296898e-07 -5.1577088e-05 0.00010303347
-0.00030084868 3.0341875e-05 0.00021361091 0.00016703593 -8.80666e-05 -0.00022487549 -5.5533998e-05 -0.0008668953
0.000399679 -0.00036777018 6.3093576e-05 -2.1690792e-05 -2.3171966e-05 -0.00019254729 1.0163743e-05 9.252059e-06
-0.0001977892 0.00020279638 -0.00014943245 0.00013805357 2.1173533e-05 -2.5694364e-05 3.827968e-05 1.3869367e-05
0.00046143596 0.00014126468 -5.573614e-05 0.00013583087 0.00035266878 -0.00030335083 6.546465e-05 9.760408e-05
0.00014460609 0.00018578953 0.00010659886 -6.348345e-05 3.4253524e-05 7.487866e-08 6.438615e-05 9.1205493e-07
0.00010475527 0.00020227984 0.0001748073 -0.0004566385 -4.4449975e-05 1.9787318e-05 -0.00016598824 2.7876924e-05
-0.0005616762 -4.9153183e-05 -9.7386306e-05 0.00022399137 -0.00035915308 -0.00014457088 3.5114434e-05 6.4722267e-06
-2.5873556e-05 -6.764391e-05 -0.00010719344 -0.0007311288 2.5029793e-05 -0.00018014842 -8.85514e-05 -2.5641164e-05
-4.915293e-05 -0.0001261635 1.13260985e-05 -0.0005183598 0.000102016245 -6.829815e-05 0.00022589514 6.541375e-05
-2.3091105e-05 7.453864e-05 0.00026148482 4.769287e-05 -6.154277e-05 4.8462924e-05 6.388143e-05 5.288961e-05
0.00025417775 -0.00017903118 -9.555336e-05 -2.0335992e-05 0.0005386926 -7.3342664e-05 -0.0004498709 0.00023049438
0.00016114028 -0.0006795783 -0.00048313403 -0.00015841635 2.5594087e-05 6.404421e-05 0.0004590812 -7.703126e-05
8.653509e-05 2.32002e-06 3.6168658e-05 0.000115310184 -1.8119396e-06 -0.00013786569 -0.00031421037 -7.250215e-05
-5.305807e-06 -6.8209294e-05 0.00013543258 -0.000118218115 -1.3537939e-05 9.367223e-05 3.6988684e-05 0.00032861167
00000000: 5cdc c2b9 dc94 cbb9 68dd 08b8 6bf0 93b8
00000010: f916 903a 7d8b a537 6bc1 42b8 72b2 54b8
00000020: e65b 6c39 0c33 0139 eae2 8c39 0015 a6b8
00000030: 0800 8439 2274 2eb9 8128 8a39 bb96 1339
00000040: 443a 0d39 90c5 2d39 d7b1 9739 71ec 62ba
00000050: 5986 20b8 802c c4b9 6cbb 5cb8 ed41 1039
00000060: 7716 97b7 e789 9239 300b 6a39 394b 8cb7
00000070: 5fa8 27b9 9321 1ab9 b9b0 b639 50aa b937
00000080: ee52 2338 4063 5d39 58a1 d1b8 1bd7 a8b9
00000090: 34c7 09b9 4ce8 f0b7 3528 7f37 bb9d 34ba
000000a0: 9c1a 5039 fc79 843a 106a c6b7 4733 ea38
000000b0: 874e bab9 1532 94b7 9b18 6ab9 4f7b 90b8
000000c0: 5dfa 7139 74b7 2736 1df4 42b7 6c5b ae39
000000d0: 4a93 29b9 7a38 e2b7 c73f 2bb6 c8b0 7738
000000e0: c742 20ba e43c 44b8 8e94 6db9 5fb9 ecb8
000000f0: 601f 0838 1b56 3c3a dbd1 2239 8dc1 8638
00000100: 01d6 27b7 1fc7 463a 932c 3ab8 c143 8139
00000110: 74b5 e738 9e9e 73b8 89b9 acb9 47fc ef38
00000120: 42fa 9fb9 2364 68b8 525b 3ab9 7b9c 8338
00000130: b863 8935 a481 f139 74b2 383a 1b6a 90b7
00000140: d5da e5b8 3b9c bb38 1a80 8139 a901 86b8
00000150: f24e 18b3 8f82 bfb8 7db5 b537 3516 2b39
00000160: f90d d7b9 7b57 ea38 3963 87b7 3fff 54b6
00000170: a765 cab5 64c9 47ba bf8d f2b8 df65 69b8
00000180: 74cb 8439 92a2 4db9 59f0 cbb7 fd9c 6bba
00000190: 1277 a436 af60 f634 26fa 36b9 20ed 3239
000001a0: 500f 9238 3c0c 9b37 546c a538 0221 55b8
000001b0: 2a8b 3139 4556 cf38 4ae9 7037 4423 b6b8
000001c0: fc65 7bb9 e4fb 8238 896e 67b9 cf1a 3339
000001d0: 3ea6 94b5 61a1 cfb8 4e78 a838 ba80 c137
000001e0: c09e 68b7 c1a4 fdb7 11ca f438 7c18 6cb9
000001f0: 4b5f 6db8 8ef2 66b9 a957 75b9 581d 9f38
00000200: 6459 a8b7 19bc a139 2f32 72b8 a957 33b9
00000210: 5c25 6dba dd80 08b9 8bf9 4a39 720c a838
00000220: f792 dbb8 0167 9738 9caf a838 3c07 87b9
00000230: b6c2 0a39 f407 2935 7a54 58b8 ac13 d838
00000240: 3abb 9db9 ae86 fe37 befc 5f39 5e26 2f39
00000250: 65b0 b8b8 8ecc 6bb9 2ded 68b8 5c40 63ba
00000260: 028c d139 47d1 c0b9 1b51 8438 9ff4 b5b7
00000270: 6b61 c2b7 85e6 49b9 f284 2a37 4a39 1b37
00000280: a265 4fb9 bda5 5439 f8b0 1cb9 79c2 1039
00000290: d19d b137 3a8a d7b7 7e8e 2038 7ab0 6837
000002a0: e3ec f139 7320 1439 3ac6 69b8 d26d 0e39
000002b0: 67e6 b839 0f0b 9fb9 114a 8938 cbb0 cc38
000002c0: 67a1 1739 7fd0 4239 d48d df38 6b22 85b8
000002d0: 71ab 0f38 fbcc a033 0d07 8738 f0d3 7435
000002e0: 0fb0 db38 151b 5439 7a4c 3739 fb68 efb9
000002f0: cc6f 3ab8 f1fc a537 210d 2eb9 3dd9 e937
00000300: 743d 13ba d429 4eb8 e03b ccb8 3adf 6a39
00000310: b64c bcb9 f397 17b9 d647 1338 012c d936
00000320: 0a0b d9b7 0cdc 8db8 0acd e0b8 39a9 3fba
00000330: 12f7 d137 39e6 3cb9 acb4 b9b8 fb17 d7b7
00000340: 8f29 4eb8 c24a 04b9 3905 3e37 8ae2 07ba
00000350: 8ef1 d538 4a3b 8fb8 44de 6c39 bd2e 8938
00000360: c5b3 c1b7 a151 9c38 e617 8939 d409 4838
00000370: 8610 81b8 ab44 4b38 15f8 8538 c9d5 5d38
00000380: 2943 8539 51ba 3bb9 d263 c8b8 3697 aab7
00000390: 0c37 0d3a 8bcf 99b8 a6dc ebb9 ddb0 7139
000003a0: c4f7 2839 ba25 32ba 274d fdb9 911c 26b9
000003b0: e2b2 d637 794f 8638 d6b0 f039 d88b a1b8
000003c0: 2c7a b538 a4b1 1b36 cdb3 1738 afd2 f138
000003d0: c531 f3b5 0a90 10b9 9abc a4b9 4c0c 98b8
000003e0: 8908 b2b6 960b 8fb8 e802 0e39 deeb f7b8
000003f0: 0121 63b7 e571 c438 4c24 1b38 8349 ac39

exp_avg_sq f4 [32, 1433]
3.2731438e-09 3.6702525e-09 9.796039e-09 4.8544018e-09 1.00236456e-07 4.5723227e-11 3.6261294e-10 2.6342822e-10
2.1160202e-09 4.7261156e-10 7.601141e-09 1.8168258e-09 3.5387433e-09 7.285979e-10 3.3960885e-09 8.853092e-10
8.3175306e-10 1.7625926e-09 1.2140561e-08 2.0273791e-07 3.9360473e-11 3.2694827e-09 9.1483494e-11 1.1732518e-09
2.3109088e-11 1.3131435e-08 1.0014538e-08 9.0670194e-11 8.5699703e-10 9.295701e-10 3.8993857e-09 4.3995762e-11
1.4241922e-10 3.044584e-09 9.059545e-10 2.5327251e-09 7.016478e-10 5.2325456e-11 6.240334e-09 3.70138e-08
2.8051395e-09 7.7285726e-08 7.65843e-11 4.3800438e-10 3.5260959e-09 9.0676106e-10 1.3464343e-09 1.490026e-09
4.3597175e-09 1.9352084e-13 2.6136563e-11 2.5070808e-08 7.5102635e-09 2.5118827e-11 1.5512108e-09 3.101586e-09
8.961602e-09 8.556201e-10 4.3481334e-09 5.8888565e-09 1.4931423e-10 5.1481795e-08 2.2268165e-09 2.3219195e-09
5.2829012e-09 5.2514245e-08 2.9147146e-10 4.335917e-09 8.5966595e-10 6.535588e-10 2.5148106e-09 9.813561e-10
2.1352047e-09 7.508762e-11 7.5028445e-10 7.253177e-10 3.9241147e-13 1.0351386e-08 4.593402e-08 1.3936197e-11
7.183922e-10 7.0764914e-09 2.5519613e-09 2.5220406e-10 1.9484929e-14 1.2128917e-09 1.1901992e-09 2.822227e-09
5.0236055e-09 1.1284715e-08 1.7962054e-10 3.0331523e-10 2.1907437e-10 2.0834058e-08 3.1093547e-10 1.02812946e-10
2.6896592e-09 1.7115018e-09 4.8925686e-09 3.3983884e-08 4.268236e-11 1.5078042e-14 8.1768836e-10 6.2342114e-09
1.3251465e-09 4.3752453e-11 2.185135e-10 8.325233e-11 1.1124687e-09 6.496716e-10 7.478577e-10 6.1172595e-10
1.8138165e-09 1.6768563e-10 1.1413043e-09 1.6513111e-09 3.1837295e-14 2.4638283e-10 2.283656e-09 1.3372428e-10
5.904638e-12 1.1781935e-09 8.621491e-10 1.311455e-09 2.2990006e-10 2.19743e-09 8.379609e-09 8.977679e-10
6.666418e-10 4.136731e-09 1.515436e-08 2.887008e-08 5.7551336e-08 4.601425e-10 2.2417308e-09 3.7934836e-08
2.151721e-09 8.3529333e-10 3.7627929e-10 1.5332787e-09 3.723187e-09 5.3002686e-11 7.798142e-11 6.678787e-10
2.221901e-09 3.372393e-11 2.2951046e-09 2.6334197e-09 2.45038e-10 1.240487e-09 1.0605624e-10 2.6203239e-08
4.6792343e-09 3.373197e-09 1.8114134e-09 2.045276e-10 6.200252e-11 3.999116e-09 4.8300464e-11 4.7534966e-11
9.375763e-10 1.6652015e-09 4.9515875e-10 6.946163e-10 2.0283834e-11 2.407213e-10 1.1174766e-10 2.3704022e-10
1.1780173e-08 2.2006263e-09 7.961111e-10 5.579106e-10 1.564111e-08 8.060583e-09 4.2257223e-10 9.87335e-10
3.2360308e-09 2.316228e-09 6.1429897e-09 3.3351506e-09 1.4138282e-10 4.3186656e-14 6.071367e-10 4.7469884e-13
6.09538e-10 3.7391192e-09 4.501114e-09 4.2852598e-08 5.6031645e-11 1.8517597e-11 6.748712e-10 2.164072e-09
9.250291e-09 9.366024e-11 1.91002e-09 5.9610334e-09 3.989465e-09 6.4289973e-10 8.4630844e-11 4.270243e-11
3.449551e-11 1.2038283e-10 3.4025086e-10 4.6143015e-08 1.9549486e-10 3.342682e-08 2.7323724e-10 2.865821e-10
8.972178e-10 4.7215015e-10 6.846027e-10 1.1865235e-08 1.3894328e-09 8.460568e-10 3.333433e-09 5.786343e-10
1.6573283e-11 2.8096403e-10 2.59117e-09 1.3246929e-10 1.1936596e-10 2.3325303e-10 3.6355202e-10 1.2059641e-10
3.0861855e-09 7.7151835e-10 1.1806156e-09 1.00046534e-10 1.822614e-08 1.5120463e-10 4.9192943e-09 1.6305719e-09
7.67927e-10 1.0432552e-08 9.16475e-09 9.0284485e-10 1.8378046e-10 1.0591523e-09 1.7749215e-08 1.5810822e-10
1.8621116e-09 1.3279722e-13 3.926292e-11 7.0364425e-10 9.1224767e-10 7.808e-10 2.2997082e-09 1.7763255e-09
3.0634742e-12 1.1599352e-10 2.5443294e-08 6.9458395e-10 1.0166866e-09 7.145278e-10 3.1125583e-10 3.3702479e-09
00000000: c1ed 6031 c437 7c31 6f4b 2832 c5cb a631
00000010: 9341 d733 c717 492e 3c59 c72f 3ad2 902f
00000020: 6c69 1131 15e9 0130 2c96 0232 e0b3 f930
00000030: 3b2e 7331 8546 4830 9f60 6931 195a 7330
00000040: 6ba1 6430 b73f f230 c092 5032 2cb0 5934
00000050: f41b 2d2e 59ad 6031 a12c c92e 2140 a130
00000060: 0a45 cb2d a998 6132 670c 2c32 c862 c72e
00000070: ce91 6b30 ae84 7f30 5cfb 8531 d37e 412e
00000080: 7297 1c2f e338 5131 e106 7930 2c0c 2e31
00000090: 13de 4030 3a21 662e 8f6a d631 1af9 1e33
000000a0: 89c4 4031 47f8 a533 2169 a82e a3cb f02f
000000b0: bc4f 7231 a33f 7930 720d b930 a1c9 cc30
000000c0: 7bcc 9531 96e2 592a 4fe6 e52d 4a5b d732
000000d0: 7d06 0132 92f2 dc2d 6132 d530 ae23 5531
000000e0: 8bf5 1932 e930 6b30 9666 9531 ee56 ca31
000000f0: 382c 242f d51c 5d33 9206 1931 a48f 1f31
00000100: e484 b531 068c 6133 f63c a02f 21fb 9431
00000110: 9d4d 6c30 1da6 3330 04d1 2c31 66e0 8630
00000120: ebba 1231 921e a52e 933c 4e30 b25f 4730
00000130: 74e8 dc2a e1d5 3132 fd48 4533 0d2b 752d
00000140: 5b78 4530 7a25 f331 945e 2f31 91a6 8a2f
00000150: 3081 af28 d5b2 a630 6994 a330 24f1 4131
00000160: 1a9c ac31 b4de 4132 b07e 452f d3bf a62f
00000170: f4df 702f 94f6 b232 47f0 aa2f 8b16 e22e
00000180: fcd4 3831 1e3a eb30 7d1b a831 adf5 1133
00000190: 11b8 3b2e 99cf 8728 b4c3 6030 b434 d631
000001a0: 7320 b630 e26c 402e 1542 702f e512 b72e
000001b0: 83e5 9830 9394 3230 cf91 4d30 6326 2830
000001c0: ff49 f930 4f5f 382f 13dc 9c30 58f4 e230
000001d0: e761 0f29 4d73 872f 80ee 1c31 0a08 132f
000001e0: 40c0 cf2c 00ee a130 59fc 6c30 b83e b430
000001f0: 1dc7 7c2f 9901 1731 e9f5 0f32 cdc6 7630
00000200: bf3e 3730 1223 8e31 ca2c 8232 fafd f732
00000210: 5d2e 7733 4df7 fc2f f20c 1a31 cbed 2233
00000220: 7add 1331 8b9a 6530 9adc ce2f 73bb d230
00000230: 00db 7f31 b81b 692e a37b ab2e c995 3730
00000240: 19b0 1831 c551 142e e8b7 1d31 9cf7 3431
00000250: 08b6 862f c27d aa30 5b38 e92e 8815 e132
00000260: fbc6 a031 e9cd 6731 71f5 f830 67e1 602f
00000270: 5158 882e 9968 8931 7d6d 542e 9d0f 512e
00000280: 09dc 8030 12dd e430 b31b 0830 47ef 3e30
00000290: 226b b22d 8356 842f 57bc f52e 7250 822f
000002a0: c061 4a32 d439 1731 57d5 5a30 785b 1930
000002b0: 2a5b 8632 d27a 0a32 c14f e82f c3b2 8730
000002c0: db60 5e31 842b 1f31 4f12 d331 9730 6531
000002d0: ba73 1b2f d37e 4229 72e3 2630 a89d 052b
000002e0: 6c8c 2730 a479 8031 38a8 9a31 ee0c 3833
000002f0: 066e 762e ece1 a22d d781 3930 c2b6 1431
00000300: 36eb 1e32 07f6 cd2e 6d41 0331 ced1 cc31
00000310: b513 8931 0cb8 3030 ee1a ba2e a9ce 3b2e
00000320: 7eb6 172e c15c 042f 0d0e bb2f c82e 4633
00000330: e9f2 562f 2d91 0f33 b936 962f d88c 9d2f
00000340: 17a0 7630 9dc8 0130 a22e 3c30 dbd7 4b32
00000350: 52f6 be30 f48f 6830 6012 6531 c50d 1f30
00000360: b7c7 912d 2c76 9a2f 5810 3231 caa6 112f
00000370: 883e 032f 723b 802f 66dd c72f df98 042f
00000380: c014 5431 c712 5430 3843 a230 3101 dc2e
00000390: b58f 9c32 5240 262f 9206 a931 a61a e030
000003a0: 0f16 5330 d93a 3332 ff72 1d32 0f2c 7830
000003b0: 9a11 4a2f 9c91 9130 f076 9832 82d7 2d2f
000003c0: 3aed ff30 3184 152a 1eae 2c2e 906a 4130
000003d0: b9c1 7a30 ea9f 5630 e508 1e31 e622 f430
000003e0: a592 572c 8c12 ff2e 658e da32 00ed 3e30
000003f0: 7bbb 8b30 6d68 4430 5d1d ab2f 079a 6731

exp_avg f4 [1, 32]
-2.2255022e-05 6.227667e-05 -0.0013702182 -0.12414321 -0.0043962277 -4.80723e-05 2.9396284e-05 8.9655245e-05
-5.096051e-05 2.0811849e-05 5.3338255e-05 -0.00021947318 -0.000549948 -0.01717468 0.00013178188 7.73571e-05
-3.9608305e-05 -0.00010123412 4.925015e-05 3.3975826e-05 3.7535785e-05 -0.00013203529 5.514731e-05 -0.0007260094
-5.486203e-05 -0.00015453523 -4.6610872e-05 -1.9581264e-05 0.00013783433 5.835748e-06 1.6058295e-05 0.00012609849
00000000: 4cb0 bab7 889a 8238 e598 b3ba cc3e febd
00000010: 3b0e 90bb 3da1 49b8 0a98 f637 4b05 bc38
00000020: 6ebe 55b8 1b95 ae37 84b7 5f38 6222 66b9
00000030: 632a 10ba eab1 8cbc ee2e 0a39 c73a a238
00000040: 1821 26b8 a84d d4b8 f291 4e38 4481 0e38
00000050: be6f 1d38 f472 0ab9 f94d 6738 ab51 3eba
00000060: a81b 66b8 bc0a 22b9 0b80 43b8 7242 a4b7
00000070: 9f87 1039 b2d0 c336 edb4 8637 4e39 0439
